cnn_autoencoder.onnx (onnx, 214583 bytes, 16 tensors)

scales__45 f4 [4]
0	0x3f800000	1.0
1	0x3f800000	1.0
2	0x40800000	4.0
3	0x40800000	4.0

scales__36 f4 [4]
0	0x3f800000	1.0
1	0x3f800000	1.0
2	0x40000000	2.0
3	0x40000000	2.0

StatefulPartitionedCall/model/conv2d_6/Conv2D/ReadVariableOp:0 f4 [3, 64, 3, 3]
0	0xbc29fb09	-0.010374793
1	0xbd66d331	-0.05635375
2	0xbdb407e5	-0.08790568
3	0xbd672534	-0.056431964
4	0xbcaf94be	-0.02143323
5	0xbb539b32	-0.0032288549
6	0x3d96a409	0.07355506
7	0x3c5a6a8c	0.013331067
8	0x3d94016b	0.07226833
9	0x3dd20e3e	0.10256623
10	0x3c80f562	0.015742008
11	0xbda192ae	-0.07889305
12	0x3c4cfff4	0.012512196
13	0x3e251a91	0.16123416
14	0x3def0e27	0.11672621
15	0x3c93cdc7	0.018042458
16	0x3dcb1ecf	0.09917986
17	0x3dafba1b	0.08580419
18	0xbd95407e	-0.072876915
19	0x3cb0bbba	0.02157389
20	0xbc213fb8	-0.009841852
21	0x3cbd70a9	0.02312501
22	0xbd94f520	-0.072733164
23	0xbd53cc7a	-0.051708676
24	0xbda8d790	-0.0824424
25	0xbdd27b7b	-0.10277458
26	0x3d2eaf2f	0.042647537
27	0xbd1b87e4	-0.037971392
28	0x3c89e391	0.016832145
29	0xbd9842e9	-0.07434637
30	0xbdbba2ab	-0.09161886
31	0x3d29d258	0.041460365
32	0xbe039926	-0.1285139
33	0xbdbd21b9	-0.09234948
34	0xbc9ec92c	-0.019383036
35	0xbdc6fec1	-0.09716559
36	0x3d5d361c	0.05400668
37	0xbbbf8d78	-0.005845722
38	0x3a4b7aa6	0.00077621115
39	0x3d204de3	0.03913678
40	0xbbbf8624	-0.005844848
41	0xbc716963	-0.014734599
42	0x3c1cac57	0.009562573
43	0xbd9cee39	-0.07662625
44	0xbc30cebc	-0.010791477
45	0xbda1b2b3	-0.07895412
46	0xbd8bb216	-0.068210766
47	0x3dbb9356	0.091589615
48	0xbd88a832	-0.06672706
49	0xbdb78b85	-0.08962158
50	0x3d67f24f	0.056627568
51	0xbb4437cf	-0.002994049
52	0x3dbcc6bb	0.09217592
53	0x3d35acff	0.044354435
54	0xbd42ff31	-0.04760665
55	0xbde93d82	-0.11388685
56	0x3d3161f7	0.043306317
57	0x3cdc90bc	0.026924483
58	0xbdce48d0	-0.10072482
59	0xbb847f28	-0.0040434785
60	0xbd9323a9	-0.07184536
61	0xbbd9f4aa	-0.0066514807
62	0xbc4e67e8	-0.012598015
63	0x3d31ad13	0.043377947
64	0x3e24bf6d	0.16088648
65	0x3b7f44ad	0.0038950846
66	0x3e1d9673	0.15389423
67	0x3d8087aa	0.06275876
68	0x3c80f3ad	0.015741194
69	0x3e0bafbd	0.13641258
70	0xbd1cd1dd	-0.03828608
71	0xbd4da22d	-0.05020349
72	0x3ca37f69	0.019958215
73	0xbbc55fb4	-0.0060233716
74	0x3d88f81d	0.06687949
75	0x3be9d702	0.0071362266
76	0x3ddf48f0	0.109025836
77	0xbd5f510f	-0.054520663
78	0x3d5495c9	0.05190066
79	0xbcc6248d	-0.02418735
80	0x3cfa2628	0.030535772
81	0xbd8bf7b3	-0.06834354
82	0xbdae4c00	-0.085105896
83	0xbd2ec233	-0.04266567
84	0xbd2e3ee6	-0.042540453
85	0xbdca3fc7	-0.09875446
86	0xbcc7fdb1	-0.024412962
87	0xbe01389e	-0.12619254
88	0xbd4a133d	-0.049334753
89	0xbca88dc6	-0.020575415
90	0x3e34d366	0.17658767
91	0x3d9cce08	0.07656485
92	0x3e6a0707	0.22854243
93	0x3e5377d7	0.20651184
94	0x3df64d17	0.120264225
95	0x3dfceb9f	0.12349629
96	0x3e42ddef	0.19029973
97	0x3df178c6	0.11790614
98	0x3e2bc730	0.16775203
99	0xbcb8880c	-0.02252581
100	0xbd0cd0dc	-0.03437887
101	0x3cbf7bf5	0.023374537
102	0x3dd14a24	0.10219219
103	0x3ddf7d17	0.10912531
104	0x3cad3708	0.021144405
105	0x3d497821	0.04918683
106	0x3dbc15c0	0.09183836
107	0xbd4a2c62	-0.049358733
108	0x3a9a6f50	0.0011782441
109	0xbd7aa40d	-0.061191607
110	0x3d2dd06a	0.042435087
111	0x3d2da21b	0.042390924
112	0xbdb0823a	-0.08618589
113	0x3dd1bc6f	0.10241019
114	0x3d91daec	0.07121834
115	0xbca81ccd	-0.020521546
116	0xbd14bb5a	-0.036311485
117	0x3d2d6f85	0.04234268
118	0x3d11c08d	0.03558402
119	0x3da4bbc8	0.08043629
120	0x3d45813b	0.048218947
121	0x3dc77654	0.09739366
122	0x3cd70c1c	0.026250891
123	0xbc38edb8	-0.011287145
124	0x3e03e685	0.12880905
125	0xbc4ac97c	-0.012377139
126	0xbd461c17	-0.048366632
127	0xbb68bbef	-0.0035512408
128	0xbce3dad4	-0.027814306
129	0xbde8d02c	-0.11367831
130	0xbcb2a7d3	-0.02180854
131	0x3ba16160	0.004924938
132	0x3d2308e6	0.039803408
133	0xbd94ff94	-0.0727531
134	0xbd504fd3	-0.050857376
135	0x3d3864ad	0.045017887
136	0x3cd399f5	0.025830248
137	0x3bd3bd28	0.006461758
138	0x3dc2b156	0.095064804
139	0xbcca20c1	-0.024673821
140	0xbd9bb88d	-0.0760356
141	0x3c106b43	0.008814636
142	0x3ce23622	0.027613703
143	0x3d850571	0.064951785
144	0x3b04d89f	0.0020270718
145	0xbcb2cc08	-0.021825805
146	0x3d8aa466	0.06769638
147	0xbd80d097	-0.06289785
148	0xbd82391b	-0.06358548
149	0xbc263207	-0.010143763
150	0x3d81ed63	0.06344106
151	0xbc8de484	-0.017320879
152	0x3dc35443	0.09537556
153	0xbdeb7ba9	-0.11498196
154	0xbd953bb0	-0.07286775
155	0x3c11531f	0.008869915
156	0x3d89b428	0.06723815
157	0xbce20fc1	-0.027595403
158	0x3d9840c1	0.07434226
159	0x3c69dff8	0.01427459
160	0x3dd21ea7	0.10259753
161	0x3c2b4d43	0.010455432
162	0xbd4c0d47	-0.04981735
163	0x3dc27061	0.09494091
164	0xbd7d0669	-0.06177369
165	0x3d82d20b	0.06387719
166	0xbc909a00	-0.017651558
167	0x3b52b6c8	0.0032152403
168	0x3d9738e0	0.07383895
169	0x3dd29346	0.102819964
170	0x3c9186d9	0.017764496
171	0x3c6a2abb	0.014292414
172	0x3e011a16	0.12607607
173	0x3aee5a6c	0.0018184907
174	0x3d58bfc5	0.05291726
175	0xbd7f419b	-0.062318426
176	0x3d9bc3b7	0.07605689
177	0x3d30d852	0.04317505
178	0x3c6e8257	0.014557443
179	0xbd9a9ecf	-0.075498216
180	0x3d8d7dab	0.06908735
181	0x3e226839	0.1586007
182	0x3e3c8d06	0.18413171
183	0x3d9f3f86	0.07775788
184	0x3e3a3d56	0.1818746
185	0x3dfac30c	0.122442335
186	0x3d18f256	0.037340485
187	0xbc32255f	-0.010873168
188	0x3d68686f	0.05674022
189	0x3db0c0df	0.08630537
190	0x3d7f5056	0.062332474
191	0x3dbb2cb8	0.09139389
192	0x3d2b1ce2	0.04177559
193	0x3d2a70fc	0.041611657
194	0x3ba8f5c7	0.005156252
195	0xbd7ca4bc	-0.06168054
196	0xbc5d3634	-0.013501693
197	0xbd458631	-0.048223678
198	0x3dfe360f	0.124126546
199	0x3e3af503	0.18257527
200	0x3e385ecc	0.18004912
201	0x3d948373	0.072516344
202	0x3dba7c40	0.0910573
203	0x3e10280d	0.14077778
204	0x3dec679f	0.11543202
205	0x3e14fa15	0.14548524
206	0x3dabc316	0.08386819
207	0x3cf6b2ee	0.030114617
208	0x3dcd181e	0.100143656
209	0xbd85f99a	-0.06541748
210	0x3cff9262	0.03119773
211	0xbda6bfc9	-0.08142049
212	0x3daa89b2	0.083270445
213	0xbb82bd05	-0.003989818
214	0x3d53c3c8	0.051700383
215	0x3dcf5eea	0.10125525
216	0x3d7d0b66	0.06177845
217	0x3ddf500e	0.10903941
218	0xbd82b1e4	-0.06381586
219	0x3dba4f2d	0.09097133
220	0x3d719a73	0.058985185
221	0x3d95696d	0.07295499
222	0x3cc53559	0.02407329
223	0x3d9dc9e8	0.07704526
224	0x3d07cbf1	0.033153478
225	0x3cfe3355	0.031030336
226	0xbcbe0756	-0.023196857
227	0x3bb653f5	0.0055642077
228	0x3d24532a	0.040118374
229	0x3e044870	0.12918258
230	0x3d92bb59	0.0716464
231	0x3d7a9f2d	0.061186958
232	0x3dda67a4	0.10664299
233	0x3d291a1a	0.041284658
234	0x3d967eaf	0.07348382
235	0x3d97966c	0.074017376
236	0x3d41c8f2	0.047310777
237	0x3b92a9f7	0.004475828
238	0x3d92181b	0.07133504
239	0x3d8081f4	0.062747866
240	0xbcdc011b	-0.026855996
241	0xbd42dd21	-0.047574166
242	0x3d491390	0.049090922
243	0xbd9e5e69	-0.07732851
244	0xbd39b66d	-0.04533999
245	0x3b8d63fd	0.004314898
246	0xbd09b074	-0.033615544
247	0x3d9a7648	0.075420916
248	0xbc259860	-0.01010713
249	0xbd348ae9	-0.044077788
250	0xbb41f67a	-0.0029596374
251	0x3dfacefe	0.12246512
252	0x3dea67e6	0.11445598
253	0x3dcaa216	0.09894197
254	0x3d70a791	0.058753554
255	0x3e62a171	0.22131898

StatefulPartitionedCall/model/conv2d_6/BiasAdd/ReadVariableOp:0 f4 [3]
0	0x3a72839d	0.0009251179
1	0x3c13a16f	0.009010657
2	0x3c084ef1	0.008319602

StatefulPartitionedCall/model/conv2d_5/Conv2D/ReadVariableOp:0 f4 [64, 32, 3, 3]
0	0x3d992187	0.07477098
1	0x3bede6a8	0.0072601624
2	0xbd6d3b79	-0.057918046
3	0xbd2b22ad	-0.041781116
4	0xbd4b39d5	-0.0496157
5	0xbd30f26a	-0.043199934
6	0xbd94d9fb	-0.07268139
7	0xbd126c71	-0.03574795
8	0x3d94d0b5	0.0726637
9	0xbda3d277	-0.07999127
10	0x3d65cb77	0.056102242
11	0xbda2a1e8	-0.079410374
12	0xbd0881a2	-0.033326752
13	0xbd8fa5a1	-0.07014013
14	0x3cb3fb6f	0.021970479
15	0x3c6b1910	0.014349237
16	0xbd090012	-0.033447333
17	0x3cfb8b50	0.030706078
18	0x3d8d0add	0.06886838
19	0xbcda076a	-0.026614863
20	0xbd5d6b68	-0.05405751
21	0xbd5a2293	-0.05325563
22	0x3d6a41fc	0.057191834
23	0x3d5418e5	0.051781554
24	0x3c4da6e4	0.012551997
25	0xbcc2b9f8	-0.023770317
26	0x3d80c03e	0.06286667
27	0xbd71850f	-0.058964785
28	0x3d92d0d8	0.0716874
29	0x3cda5a34	0.02665434
30	0x3d3093b1	0.0431096
31	0x3d7c017a	0.061524846
32	0x3d5caaee	0.05387395
33	0x3d8d0c96	0.06887166
34	0x3be26b39	0.0069097546
35	0xbd60120b	-0.054704707
36	0x3aadf820	0.00132728
37	0x3c8d690d	0.017262006
38	0x3d292d8c	0.041303203
39	0xbbd8caab	-0.006615957
40	0xbd967c85	-0.07347969
41	0xbd97cf82	-0.07412626
42	0x3d854032	0.06506385
43	0x3d7385a2	0.059453614
44	0xbbca4713	-0.0061730235
45	0x3d971532	0.073770896
46	0x3d389c0d	0.045070697
47	0x3d29e99c	0.041482553
48	0x3c93caf3	0.01804111
49	0xbc09c72f	-0.0084093055
50	0xbda3f51e	-0.08005737
51	0xbc14f750	-0.009092167
52	0x3d0e9b73	0.034816217
53	0xbd626b24	-0.05527796
54	0x3d6be8c0	0.057595015
55	0xbd6eb8db	-0.05828176
56	0xbd528c6a	-0.05140344
57	0xbce2006d	-0.027588094
58	0xbbcc10b7	-0.0062275785
59	0xbd9b8715	-0.07594124
60	0xbd80b56b	-0.06284603
61	0xbd991d28	-0.07476264
62	0xbd863f16	-0.065550014
63	0xbda9ca40	-0.08290529
64	0x3d33d4ce	0.04390412
65	0xbd16f655	-0.036856014
66	0xbc8e219a	-0.017350007
67	0x3cdbc0a1	0.026825251
68	0x3ba16325	0.004925149
69	0xbda0932f	-0.07840573
70	0xbc59ecd4	-0.013301093
71	0x3d803b94	0.062613636
72	0x3d915b79	0.07097525
73	0xbd17af9f	-0.03703272
74	0xbd91656d	-0.070994236
75	0xbd5a4553	-0.05328877
76	0x3b626bf7	0.0034549215
77	0x3cb11482	0.021616224
78	0xbd22e3df	-0.039768096
79	0x3b99edfa	0.0046975585
80	0x3ce046f2	0.02737758
81	0x3b88790d	0.004164821
82	0x3d75e442	0.060032137
83	0xbc268d67	-0.010165549
84	0xbd5ef96c	-0.054437086
85	0x3d8d5086	0.06900124
86	0xbd359d7f	-0.044339653
87	0xbd6324c1	-0.055454973
88	0x3d845b7e	0.06462763
89	0xbbdb93c7	-0.006700966
90	0xbdb753d0	-0.08951533
91	0x3d1ae180	0.03781271
92	0xbd2dd9ae	-0.042443924
93	0x3c67b228	0.014141597
94	0xbd99eab5	-0.0751547
95	0x3d307df6	0.043088876
96	0xbb8e89ab	-0.0043499074
97	0xbd68954a	-0.056783
98	0x3d8dec57	0.06929844
99	0x3d0ab8c8	0.033867627
100	0x3d72b304	0.059252754
101	0x3be5f044	0.0070171673
102	0xbd76b11b	-0.060227495
103	0x3d9a0d94	0.07522121
104	0x3d2215a4	0.03957142
105	0xbdaadd80	-0.08343029
106	0xbd6db07d	-0.05802964
107	0x3cb23696	0.021754544
108	0x3d8da51c	0.06916258
109	0xbdaf4c62	-0.08559491
110	0xbd44948d	-0.04799323
111	0x3cbf8e9d	0.023383433
112	0xbd218d07	-0.039441135
113	0xbcd8f6bd	-0.026484841
114	0xbd83731c	-0.0641844
115	0x3d785735	0.060630042
116	0x3d5dc110	0.054139197
117	0xbb236356	-0.0024931035
118	0xbda706d4	-0.08155599
119	0x3d4292ae	0.047503166
120	0xbbe3b128	-0.006948609
121	0xbce9dcd2	-0.028547678
122	0x3c651b61	0.013983578
123	0xbca6a401	-0.020341875
124	0xbd57cf60	-0.052688003
125	0xbd928679	-0.07154555
126	0x3d2f7abc	0.042841658
127	0xbd852742	-0.065016285
128	0xbd500417	-0.05078515
129	0xbd200419	-0.039066408
130	0x3d88f80c	0.06687936
131	0xbda7cde4	-0.081935674
132	0xbc3bce38	-0.011462741
133	0x3c91ad62	0.01778287
134	0xbc9916e3	-0.018687671
135	0x3d589604	0.05287744
136	0xbbb005cf	-0.005371786
137	0x3cd98236	0.026551347
138	0x3d7464f4	0.05966659
139	0x3bfbce56	0.0076845093
140	0x3c1c1a8a	0.009527812
141	0x3d5f0416	0.054447256
142	0xbb2c95cc	-0.0026334403
143	0x3c42b735	0.0118845
144	0xbd34d80f	-0.044151362
145	0xbdb2d759	-0.087324806
146	0x3d703450	0.05864364
147	0xbd456c72	-0.048199125
148	0xbd1a513f	-0.03767514
149	0xbc9e0899	-0.019291209
150	0xbcbe714a	-0.02324738
151	0x3cbb5394	0.022867002
152	0x3b741c18	0.003724819
153	0xbdad1947	-0.08452087
154	0xbc3ab7d4	-0.011396367
155	0xbdb34662	-0.08753659
156	0xbc14c530	-0.009080216
157	0xbc298f8d	-0.010349167
158	0xbd84b155	-0.06479136
159	0x3cbfa385	0.023393402
160	0x3d630cbf	0.055432077
161	0xbd4a0384	-0.04931976
162	0x3cc9fece	0.024657633
163	0xbcef8d67	-0.02924223
164	0xbd82dff1	-0.0639037
165	0xbd8988b2	-0.06715526
166	0x3d29ae76	0.041426145
167	0x3d161f0b	0.0366507
168	0xbb8aa88d	-0.0042315186
169	0x3d6aa159	0.05728278
170	0xba9def6d	-0.0012049504
171	0xbcbe2286	-0.023209821
172	0x3d1fda77	0.039026704
173	0x3bfc406c	0.0076981094
174	0xbd12b660	-0.035818458
175	0xbcfbb244	-0.030724652
176	0x3c9f4deb	0.019446334
177	0xbd1ccaae	-0.038279228
178	0x3d5456d7	0.05184063
179	0xbdb64969	-0.089007206
180	0xbdb6db9d	-0.08928607
181	0xbd826308	-0.06366545
182	0x3d2f3870	0.042778432
183	0xbce26a40	-0.027638555
184	0x3d9332f3	0.07187452
185	0x3cc00eec	0.023444615
186	0xbd5c4bbc	-0.053783163
187	0xbd71ec80	-0.059063435
188	0x3d62c340	0.055361986
189	0x3d8077f3	0.062728785
190	0xbcfb7a61	-0.030698003
191	0x3d2df548	0.042470247
192	0xbda09ddd	-0.0784261
193	0x3d13c359	0.03607497
194	0xbdb8423b	-0.089970075
195	0xbd77bb10	-0.06048113
196	0x3cb00776	0.021487933
197	0xbcbf5fc4	-0.023361094
198	0x3d23d664	0.03999938
199	0x3cb83dfb	0.022490492
200	0xbd951ef7	-0.07281297
201	0xbdb34119	-0.08752651
202	0xbd9f97f3	-0.07792654
203	0x3c7eb335	0.015545656
204	0xbb4c9809	-0.003121855
205	0x3d31fa37	0.043451514
206	0xbcc71c73	-0.024305558
207	0x3d5c9ade	0.05385863
208	0x3cf5fc56	0.03002755
209	0xbda216ae	-0.07914482
210	0xbdb39a03	-0.0876961
211	0xbc4a844a	-0.012360642
212	0x3d6a54c2	0.057209738
213	0xbd031078	-0.031998128
214	0xbdbd2030	-0.09234655
215	0x3cbebedb	0.023284366
216	0xbd8d449e	-0.06897853
217	0xbda0a57f	-0.07844066
218	0xbd2c023b	-0.041994315
219	0xbd228006	-0.039672874
220	0x3cae5398	0.021280095
221	0xbd660b13	-0.056162905
222	0x3d252955	0.04032262
223	0xbd03ce13	-0.03217895
224	0x3a03c04e	0.0005025909
225	0x3d2a6ea4	0.04160942
226	0xbc8bbf4f	-0.017058996
227	0xbd227fc7	-0.03967264
228	0xbdafaa3f	-0.08577394
229	0xbc3030f3	-0.010753858
230	0xbd55d404	-0.052204147
231	0xbda3bf5b	-0.079954825
232	0xbd8a3f93	-0.06750407
233	0x3d69e60c	0.057104155
234	0x3d414bcf	0.047191437
235	0x3d327695	0.04357012
236	0xbcc3c218	-0.023896262
237	0xbd88f3d4	-0.066871315
238	0xbc43cda6	-0.011950886
239	0xbdb86618	-0.09003848
240	0x3c88586d	0.016643727
241	0xbd9f6a33	-0.07783928
242	0x3c81e35e	0.015855487
243	0x3d00b40f	0.031421717
244	0xbd8cf7ec	-0.06883225
245	0xbc798358	-0.015229069
246	0x3cbfddfd	0.023421282
247	0xbd84e7ac	-0.064895004
248	0x3d7f8dec	0.062391207
249	0xbca4c043	-0.020111209
250	0xbdab927a	-0.083775476
251	0xbcec06d1	-0.028811844
252	0xbc9bc709	-0.019015806
253	0xbc10a57c	-0.008828517
254	0xbd0c0163	-0.03418101
255	0xbd2088e8	-0.039193064

StatefulPartitionedCall/model/conv2d_5/BiasAdd/ReadVariableOp:0 f4 [64]
0	0xbc235240	-0.00996834
1	0xbc363af6	-0.011122456
2	0xbc101152	-0.008793192
3	0xbc83f590	-0.016108304
4	0xbc1c1a9d	-0.0095278295
5	0xbc38e63d	-0.011285362
6	0x3c2f9250	0.010716036
7	0xbd000e8c	-0.031263873
8	0xbaefa880	-0.001828447
9	0x3c19aa29	0.009378948
10	0xbcb7583a	-0.022380937
11	0xbb8b7021	-0.00425531
12	0xbc67818d	-0.014130008
13	0xbd05007e	-0.032471173
14	0x3d0bf6b6	0.03417083
15	0x3b93b307	0.0045074257
16	0xbc0e9811	-0.008703248
17	0xbb5cca8c	-0.0033690063
18	0xbc0f9160	-0.008762687
19	0x3ce40b28	0.027837351
20	0xbb0c8c32	-0.0021445868
21	0xbc4ae780	-0.012384295
22	0xbd2229e0	-0.039590716
23	0x3b45f412	0.0030205292
24	0xbb86b5e3	-0.004111038
25	0xbc857add	-0.016293937
26	0xbb7a3940	-0.0038181096
27	0xbcdc241d	-0.026872689
28	0x3cacb0d0	0.021080405
29	0xbae8a6c6	-0.0017749898
30	0xbb31d591	-0.0027135352
31	0xbcd50658	-0.026004001
32	0xbc6d2bae	-0.014475746
33	0xbd09267b	-0.033483963
34	0xbc5038e5	-0.012708877
35	0x3ba5dbd2	0.005061605
36	0xbd0df266	-0.034654997
37	0xbba7b6a6	-0.005118209
38	0xbb87b640	-0.004141599
39	0x3b6280b4	0.0034561576
40	0x3ab388a7	0.0013697342
41	0x3c127717	0.008939526
42	0xbb797988	-0.0038066823
43	0xba2786f1	-0.0006390652
44	0xbce1d83f	-0.027568934
45	0xbc55a137	-0.013038925
46	0xbcd17d64	-0.025572486
47	0xbbe4b607	-0.006979707
48	0xbc8ae9d4	-0.016957201
49	0xbbe6f507	-0.0070482525
50	0xbc498d81	-0.012301804
51	0xbbf4da74	-0.0074723307
52	0xbc4f1166	-0.012638425
53	0xbd005b66	-0.031337164
54	0x3c203eec	0.009780627
55	0xbc2b7d02	-0.010466816
56	0xbd90f62e	-0.07078205
57	0x3b85ed29	0.0040871096
58	0xbaff9fd7	-0.0019502592
59	0xbd42419d	-0.047425855
60	0x3bebbe35	0.0071943053
61	0xbba8870f	-0.0051430534
62	0xbcb86cd2	-0.022512827
63	0xbca36eb1	-0.019950243

StatefulPartitionedCall/model/conv2d_4/Conv2D/ReadVariableOp:0 f4 [32, 16, 3, 3]
0	0xbc7bdf37	-0.015373043
1	0x3d8fed66	0.07027702
2	0xbcda263f	-0.026629565
3	0xbd115b07	-0.0354872
4	0x3b8501dc	0.0040590595
5	0xbd8253e0	-0.06363654
6	0xbe0c9907	-0.1373025
7	0xbc3af6c2	-0.011411371
8	0x3d675fa6	0.0564877
9	0xbd35ae9c	-0.044355974
10	0x3d60631d	0.05478202
11	0xbb9857c5	-0.004649135
12	0xbd114aa3	-0.03547157
13	0xbd85ef14	-0.06539741
14	0x3d90215e	0.07037614
15	0x3df150d2	0.117829934
16	0xbc631e1f	-0.013862162
17	0x3d375ec9	0.04476813
18	0xbbd17a11	-0.0063927253
19	0xbda1ee61	-0.07906795
20	0xbd32991d	-0.04360305
21	0x3e01f920	0.1269269
22	0xbd6311ed	-0.055437017
23	0xbd8d2ca4	-0.0689328
24	0xbba5f087	-0.0050640735
25	0x3db39140	0.087679386
26	0xbdd4df4e	-0.103941545
27	0xbd5374bb	-0.051624995
28	0xbd335117	-0.043778505
29	0xbcc1d227	-0.023659779
30	0x3c098b09	0.008394965
31	0xbd331965	-0.04372539
32	0x3d2a3c9d	0.04156171
33	0xbd7f05ef	-0.062261518
34	0x3d675f70	0.0564875
35	0x3d34f863	0.044182193
36	0x3e3644a1	0.17799617
37	0x3d27d0cf	0.04097062
38	0xbe2986df	-0.16555355
39	0xbdcd705b	-0.10031196
40	0x3dd17201	0.10226823
41	0xbd49ad39	-0.049237464
42	0xbde690d0	-0.112580895
43	0x3d90117f	0.07034587
44	0x3a16bf39	0.00057505403
45	0x3dd55c99	0.10418052
46	0x3e0a4a5f	0.13504933
47	0xbd035366	-0.032061957
48	0xbce0890e	-0.027409103
49	0x3de7bf63	0.11315801
50	0x3b11fd88	0.002227636
51	0x3e075897	0.13217388
52	0xbd561a2a	-0.052271046
53	0x3d5b9d99	0.053617094
54	0x3db8784a	0.09007318
55	0x3dcb7412	0.09934248
56	0xbdcc2a8f	-0.09969055
57	0x3e08c90e	0.13357946
58	0x3a984653	0.0011617638
59	0xbe4faa1e	-0.20279738
60	0x3d81b7a5	0.063338555
61	0x3d0c3803	0.034233104
62	0xbda9780a	-0.08274849
63	0x3d1b91a2	0.037980683
64	0x3dba34c2	0.09092094
65	0x3d3f06cb	0.046637338
66	0xbd287ad5	-0.041132767
67	0xbd78fa62	-0.06078566
68	0xbd1afd82	-0.03783942
69	0x3d2b62a5	0.04184212
70	0x3e0d1773	0.13778476
71	0xbdb60618	-0.08887881
72	0xbdb4889e	-0.0881512
73	0xbdd3e0e4	-0.10345629
74	0x3da4c03e	0.0804448
75	0xbdd70a99	-0.10500068
76	0xbcb55ce3	-0.022139018
77	0x3ccf4a1e	0.025303897
78	0x3de30309	0.11084563
79	0x3cc5ddb3	0.024153566
80	0x3bc5b4bb	0.0060335076
81	0x3cc303db	0.02380555
82	0x3dce520c	0.10074243
83	0xbd988708	-0.0744763
84	0x3e137e16	0.14403567
85	0x3c92f0e7	0.017937137
86	0x3cb4c88d	0.022068286
87	0xbcb7349d	-0.022363955
88	0xbdeac076	-0.1146249
89	0x379b083b	1.8481272e-05
90	0x3c103e61	0.008803935
91	0xbd0b56ea	-0.034018435
92	0xbd19468a	-0.037420787
93	0xbdeaba83	-0.114613555
94	0x3cc12c77	0.023580773
95	0x3d1df347	0.038562085
96	0xbd433e49	-0.04766682
97	0xbddb29de	-0.10701345
98	0x3bbbd766	0.0057324646
99	0xbdad7c97	-0.08471029
100	0x3d55aade	0.052164905
101	0xbd8647ca	-0.065566614
102	0x3d00dded	0.031461645
103	0x3dd0a6f4	0.10188094
104	0xbe38188b	-0.17978112
105	0xbcd41c7e	-0.025892492
106	0x3ddfa7cd	0.10920677
107	0xbda62c55	-0.081139244
108	0x3d0faa67	0.035074618
109	0xbcd0923e	-0.025460359
110	0x3e24263c	0.1603021
111	0xbdb79eeb	-0.08965858
112	0xbe6cc1d7	-0.23120819
113	0xbd097da6	-0.033567093
114	0xbd94274f	-0.0723406
115	0xbb4f8537	-0.0031665096
116	0xbdd94a82	-0.10609914
117	0x3dd38e56	0.10329883
118	0x3d729cb7	0.059231486
119	0xbd611e95	-0.054960806
120	0xbdef1230	-0.11673391
121	0xbb2b3532	-0.0026124236
122	0xbd07c561	-0.03314722
123	0x3dd389cb	0.10329016
124	0xbcd9e5b2	-0.026598785
125	0x3d96c9bd	0.07362697
126	0x3e0430b1	0.129092
127	0x3dfd37f7	0.1236419
128	0x3defae45	0.11703161
129	0xbc9625ea	-0.018328626
130	0xbd8b0282	-0.06787588
131	0x3db6dbd4	0.08928648
132	0xbd3c0339	-0.04590151
133	0xbdfca862	-0.12336804
134	0x3c51499d	0.012773898
135	0x3c2f52c8	0.010700889
136	0x3d25533d	0.040362585
137	0x3da18de6	0.07888393
138	0x3dd03391	0.101660855
139	0xbdd8bd65	-0.10582999
140	0xbd72f1ba	-0.05931256
141	0xbcd35a07	-0.025799764
142	0xbdcddaa0	-0.10051465
143	0x3d52b9e1	0.0514468
144	0xbcae5282	-0.021279577
145	0x3deea06c	0.11651692
146	0x3d5b3fcd	0.053527642
147	0x3c2be99c	0.0104927085
148	0xbd3bffc3	-0.04589821
149	0xbd8b941b	-0.06815358
150	0x3e15205e	0.14563128
151	0xbd11e186	-0.035615467
152	0x3d0bc9c3	0.03412796
153	0x3dacc96e	0.08436857
154	0xbce42474	-0.027849413
155	0xbe06bddb	-0.13158362
156	0xbd3e76ec	-0.04650013
157	0x3cd85442	0.026407365
158	0x3dd40cf3	0.10354032
159	0xbcf72cbd	-0.0301727
160	0xbd135172	-0.035966344
161	0x3dccfbda	0.100089744
162	0x3b95f007	0.0045757326
163	0xbd848a31	-0.064716704
164	0x3d2cd19e	0.042192094
165	0x3d8359ed	0.06413636
166	0xbd1e2f7f	-0.038619515
167	0x3cbd7e30	0.02313146
168	0x3df98a4a	0.1218458
169	0x3d913275	0.07089702
170	0x3d7d4fa4	0.06184353
171	0x3c9760b7	0.018478734
172	0x3dc768e2	0.09736802
173	0x3d62ef66	0.05540409
174	0xbd8b485c	-0.06800911
175	0xbd76b247	-0.060228612
176	0xbd0b1470	-0.033955038
177	0xbdaa7a64	-0.083241254
178	0x3be68953	0.0070354133
179	0x3ca56b6b	0.020192822
180	0x3d2dba7b	0.04241417
181	0xbd9ae712	-0.075636044
182	0xbddc18b8	-0.10746902
183	0x3d99dc3f	0.07512712
184	0xbd13d418	-0.03609094
185	0xbdd34a1b	-0.10316869
186	0xbd90c9f2	-0.07069768
187	0xbce1b036	-0.027549844
188	0x3dc4dd56	0.09612529
189	0xbd86aed0	-0.065763116
190	0x3d7f716f	0.062364038
191	0x3d55c222	0.052187093
192	0x3d356106	0.044281982
193	0xbd943306	-0.072362944
194	0xbc973bc2	-0.018461112
195	0x3cbbea84	0.022938974
196	0x3e360d35	0.17778476
197	0x3a20a72c	0.0006128426
198	0x3bdbdf09	0.0067099375
199	0xbd8e9f0e	-0.06963931
200	0xbd82d597	-0.06388395
201	0xbd0c5680	-0.03426218
202	0x3dd2f6f2	0.10301007
203	0xbd9b83d2	-0.07593502
204	0xbd5659bb	-0.052331667
205	0x3c8559cc	0.01627817
206	0x3d2c5f60	0.042083144
207	0x3d8fcb2e	0.07021175
208	0xbdb91555	-0.09037272
209	0x3dadcc66	0.084862515
210	0x3d79b40d	0.060962725
211	0xbcab8447	-0.020937098
212	0x3d9f3c7e	0.0777521
213	0x3d201bbc	0.03908895
214	0x3d055800	0.032554626
215	0xbd60cf81	-0.05488539
216	0x3dbd3d97	0.09240263
217	0x3d894432	0.0670246
218	0x3db36f38	0.08761448
219	0xbd46be31	-0.048521224
220	0xbe0b1d83	-0.13585477
221	0x3d919cbf	0.07109975
222	0x3dd90948	0.105974734
223	0x3d338c8d	0.04383521
224	0xbcf855e8	-0.0303144
225	0xbd905cf9	-0.07048983
226	0x3c0d27e7	0.0086154705
227	0xbc104dbd	-0.008807597
228	0xbda4e41e	-0.080513224
229	0xbd5b52c6	-0.053545736
230	0xbd42dba6	-0.047572754
231	0xbb3e33ef	-0.0029022654
232	0x3c903a7d	0.017606014
233	0xbdf23af0	-0.11827648
234	0x3c8fecf5	0.017569045
235	0xbcb05685	-0.02152563
236	0x3d29e229	0.04147545
237	0xbc047fe7	-0.008087135
238	0x3d45134e	0.048114114
239	0xbc88f4cd	-0.016718293
240	0x3d7b52e8	0.061358362
241	0x3d388046	0.045044206
242	0x3d4cd92c	0.0500118
243	0xb98aa554	-0.0002644459
244	0xbe1cb300	-0.15302658
245	0xbab6a42d	-0.0013934426
246	0xbd72d7bb	-0.059287768
247	0x3cdcfb55	0.026975313
248	0xbd20594b	-0.039147656
249	0x3e1fe94d	0.15616341
250	0xbd064f21	-0.032790307
251	0xbaf1aa17	-0.0018437532
252	0x3dea9d82	0.114558235
253	0x3dc597a0	0.09648061
254	0x3dad4c08	0.084617674
255	0xbcb972aa	-0.022637684

StatefulPartitionedCall/model/conv2d_4/BiasAdd/ReadVariableOp:0 f4 [32]
0	0x3ae1c9d8	0.0017226292
1	0x3b553805	0.003253461
2	0xbc3d8510	-0.011567369
3	0xba7d0c68	-0.0009653033
4	0xbd029963	-0.031884562
5	0xbb02f961	-0.0019985067
6	0xbc7d8643	-0.015473905
7	0x3c8bef49	0.017081873
8	0xbd1ae749	-0.037818227
9	0xbd2355d9	-0.039876793
10	0xbc5e4a12	-0.013567464
11	0xbd0e6dac	-0.03477256
12	0xbcedebef	-0.029043166
13	0xba9f0931	-0.0012133477
14	0xbcf94d58	-0.030432388
15	0xbcce8795	-0.025211135
16	0xbc4ac836	-0.012376836
17	0xba060b87	-0.0005113412
18	0xbc1f3984	-0.009718303
19	0xbb769ce0	-0.0037630126
20	0xbb46afab	-0.0030317109
21	0x3c1d5070	0.009601697
22	0xba759a8b	-0.0009369037
23	0xbbbcf9dd	-0.0057670907
24	0xbc96a2d0	-0.018388182
25	0xbd2cbe6a	-0.04217378
26	0x3c35a721	0.01108721
27	0xbd15447d	-0.03644227
28	0x3b85e144	0.0040856916
29	0x3b9e789f	0.0048361565
30	0xbd005b44	-0.031337038
31	0xbc346dcd	-0.011012507

StatefulPartitionedCall/model/conv2d_3/Conv2D/ReadVariableOp:0 f4 [16, 16, 3, 3]
0	0xb9ce3b62	-0.00039335625
1	0xbcc1b0f1	-0.023643943
2	0x3dab1718	0.08354014
3	0xbd8097be	-0.062789425
4	0x3dc07ef9	0.09399218
5	0xbe040bcc	-0.12895125
6	0xbcb1c271	-0.021699162
7	0xbd847fec	-0.06469712
8	0xbd157004	-0.03648378
9	0xbdb66a66	-0.08907013
10	0xbd9e2e1b	-0.07723638
11	0xbc4a1706	-0.012334591
12	0x3dad9aff	0.08476829
13	0xbde4e223	-0.11175945
14	0xbb8b8ab3	-0.0042584776
15	0xbe63cc64	-0.22245938
16	0x3d33d78b	0.04390673
17	0x3d97baf4	0.07408705
18	0x3d2c66f5	0.042090375
19	0xbdfe247c	-0.124093026
20	0xbe0319ac	-0.12802762
21	0xbdadec81	-0.08492375
22	0x3d522815	0.051307756
23	0x3d599a7b	0.05312584
24	0x3d9b70c6	0.07589869
25	0x3e122c01	0.14274599
26	0xbd88ce30	-0.06679952
27	0x3d7d969f	0.06191122
28	0xbd9c44ff	-0.076303475
29	0xbdcbaf16	-0.09945504
30	0xbdc59d70	-0.096491694
31	0x3dab3f09	0.083616324
32	0xbe7d6397	-0.24745022
33	0x3e44894e	0.19193003
34	0x3e2d7226	0.16938075
35	0xbd9a8a7c	-0.07545945
36	0xbcafcccd	-0.021459961
37	0x3e5967fa	0.2123107
38	0xbd01ca39	-0.031686995
39	0x3daaa66b	0.08332523
40	0x3d9b4625	0.075817384
41	0x3ba032b0	0.004888855
42	0x3da0f8c0	0.07859945
43	0x3e2c51ad	0.16828032
44	0xbded624f	-0.115910165
45	0xbd7eaf20	-0.06217873
46	0x3d9e3117	0.07724207
47	0xbcf36497	-0.02971105
48	0x3dd115d5	0.10209242
49	0x3c4b1e50	0.012397364
50	0x3d461366	0.048358344
51	0xbd20d5c7	-0.039266374
52	0x3d01ddbb	0.0317056
53	0xbddd16c6	-0.10795359
54	0x3e1349b3	0.14383583
55	0xbd5422f2	-0.05179114
56	0x3c9cfadc	0.019162588
57	0xbe0d1692	-0.13778141
58	0x3dff49eb	0.124652706
59	0x3e194028	0.1496588
60	0x3d90744c	0.07053432
61	0xbd97d746	-0.07414107
62	0xbd173e76	-0.0369248
63	0x3d7c2c34	0.061565593
64	0x3d600870	0.054695547
65	0xbd75c4ac	-0.060002014
66	0x3df1614d	0.11786137
67	0xbddbb17f	-0.10727214
68	0x3dc908e8	0.09816152
69	0x3dea97df	0.11454748
70	0xbb9e0cc4	-0.004823299
71	0xbd020ff6	-0.031753503
72	0x3d68cec7	0.056837823
73	0x3db10ebe	0.0864539
74	0x3cbafc5e	0.022825416
75	0xbe3bff32	-0.18359068
76	0x3e87163b	0.26384148
77	0xbd1f6303	-0.038912784
78	0x3e057c14	0.13035613
79	0x3d3954d0	0.0452469
80	0x3dead054	0.11465517
81	0x3daa8a67	0.083271794
82	0xbdcec2a0	-0.100957155
83	0xbdcb0aec	-0.099141926
84	0x3cc9323b	0.024560085
85	0x3d65e922	0.056130536
86	0x3d871469	0.0659569
87	0xbc7ed70b	-0.0155542
88	0xbe285212	-0.16437557
89	0x3d106291	0.03525025
90	0xbdcd4677	-0.10023206
91	0x3e0995be	0.13436028
92	0x3d940b6c	0.07228741
93	0xbdc69d7f	-0.09698009
94	0x3dce56c2	0.100751415
95	0xbd58c81e	-0.05292522
96	0xbdf54d12	-0.119775906
97	0x3decad3c	0.11556479
98	0xbd62a9e1	-0.05533779
99	0x3df4695c	0.11934158
100	0xbe0ead4e	-0.13933298
101	0x3d27bb2a	0.040949978
102	0x3d6796a0	0.05654013
103	0x3cbd54ea	0.02311178
104	0x3d66911c	0.05629073
105	0xbcf87821	-0.03033072
106	0xba5eafcc	-0.00084948237
107	0xbdf95646	-0.121746585
108	0x3e5e26fc	0.21694559
109	0xbcfbe575	-0.030749062
110	0x3d39dce0	0.04537666
111	0xbd41f111	-0.04734904
112	0x3eb407b5	0.3516213
113	0xbdd9a904	-0.1062794
114	0xbd0fc53b	-0.035100203
115	0x3c00eb2c	0.007868569
116	0xbda4c3a5	-0.08045129
117	0x3dd491e5	0.1037939
118	0x3c973f94	0.018462934
119	0x3daafd80	0.083491325
120	0xbdc96614	-0.09833923
121	0xbccb942e	-0.024850931
122	0x3dde24c7	0.108468585
123	0x3d522543	0.051305067
124	0xbda5195c	-0.080614775
125	0x3dece014	0.11566177
126	0xbd58f6e8	-0.052969843
127	0x3d842c5d	0.06453774
128	0x3db40736	0.08790438
129	0xbd99eb47	-0.07515579
130	0xbd6fcaf7	-0.05854317
131	0xbdaa1d78	-0.08306402
132	0xbe05657e	-0.13026997
133	0xbdc66bcf	-0.096885316
134	0x3d88db8a	0.06682499
135	0xbca8e9a3	-0.02061922
136	0xbcfe1803	-0.031017309
137	0x3dd4ae97	0.10384863
138	0x3d9f5f34	0.077818304
139	0x3dd548fe	0.10414313
140	0xbde3a465	-0.1111534
141	0xbd7009a9	-0.058602963
142	0xbccc220e	-0.024918582
143	0xbd334190	-0.043763697
144	0xbe3dd5e4	-0.18538624
145	0xbd2a1725	-0.04152598
146	0xbe16f0a0	-0.14740229
147	0xbd27975e	-0.04091584
148	0xbd4e86ba	-0.050421454
149	0x3e460cbf	0.193408
150	0xbd36874b	-0.04456262
151	0x3de962ec	0.11395821
152	0xbd9ad385	-0.075598754
153	0x3c9cc8ed	0.019138778
154	0xbdb3bf2d	-0.08776698
155	0xbe6254e2	-0.22102693
156	0x3deb3d55	0.114863075
157	0x3de36a24	0.11104229
158	0x3a78c2a2	0.0009489452
159	0x3b88c119	0.0041734097
160	0x3d89f048	0.06735283
161	0x3e26a49a	0.16273728
162	0xbe061bff	-0.13096617
163	0xba695681	-0.0008901135
164	0x3be89fbc	0.00709912
165	0xbc916413	-0.017747914
166	0x3e263648	0.16231644
167	0xbd4fd114	-0.0507365
168	0x3d42c619	0.047552202
169	0xbdb83a2e	-0.08995472
170	0x3cb50a31	0.022099586
171	0x3d1de8f9	0.03855226
172	0x3e93411b	0.2876061
173	0x3be2eac5	0.0069249594
174	0x3e68354a	0.22676578
175	0x3dca40ee	0.098756656
176	0xbd65021e	-0.055910222
177	0x3d3b110b	0.04567055
178	0xbe0b4561	-0.13600685
179	0x3d53b5fd	0.05168723
180	0xbc93e2e2	-0.018052522
181	0xbd010916	-0.031502806
182	0x3df1660e	0.117870435
183	0x3bb9a67a	0.0056655975
184	0xbca0d3e7	-0.019632293
185	0xbda35458	-0.07975072
186	0x3d692c8b	0.056927245
187	0xbda43115	-0.08017174
188	0xbc1e00d7	-0.009643755
189	0x3d5740a1	0.05255187
190	0x3dc2de38	0.09515041
191	0xbd5c6f90	-0.05381733
192	0x3de8d5d8	0.113689125
193	0x3e26619c	0.16248173
194	0xbcd20459	-0.025636839
195	0xbba2de17	-0.004970323
196	0xbdb0565f	-0.08610224
197	0xbda8fc3b	-0.08251234
198	0xbd07d8cb	-0.033165734
199	0x3daec54a	0.08533724
200	0xbc03c911	-0.008043543
201	0x3d1b2446	0.03787639
202	0xbd800653	-0.06251206
203	0x3da2d4be	0.079507336
204	0x3db1fb5e	0.086905226
205	0xbcea546b	-0.028604707
206	0xbcca59e6	-0.02470107
207	0x3cf6cd8b	0.030127307
208	0x3d2abe4e	0.041685395
209	0xbd5a8405	-0.05334856
210	0x3e096330	0.13416743
211	0xbe0bf17c	-0.13666338
212	0x3df3c448	0.11902672
213	0xbdf3d50e	-0.11905871
214	0xbd2178cb	-0.039421838
215	0xbdeed475	-0.11661617
216	0x3d963bc7	0.073356204
217	0xbd9ec574	-0.07752505
218	0x3e0d36de	0.13790461
219	0x3da5b6d2	0.08091511
220	0x3dc0786b	0.09397968
221	0xbcf9300b	-0.030418416
222	0xbd9eaab3	-0.07747402
223	0x3dd19837	0.10234111
224	0xbd00969e	-0.03139364
225	0xbdd5b278	-0.10434431
226	0x3e04c34e	0.12965128
227	0xbe624ab2	-0.22098807
228	0xbd9d9072	-0.076935664
229	0xbb3fe964	-0.0029283399
230	0x3dabeb8a	0.08394535
231	0xbd41ce98	-0.047316164
232	0xbd09f1e7	-0.03367796
233	0xbe0686fd	-0.13137431
234	0x3d87f81b	0.06639119
235	0x3d9be198	0.07611388
236	0x3d146283	0.03622676
237	0x3dc03059	0.093842216
238	0x3c9d6431	0.019212814
239	0xbcce3f16	-0.025176566
240	0x3b45e57a	0.0030196593
241	0x3d38254c	0.044957444
242	0xbdd0639a	-0.101752475
243	0xbdaf14ae	-0.08548866
244	0x3e28fd64	0.16502911
245	0xbcd21aa3	-0.025647467
246	0x3c9c2a4a	0.019063134
247	0xbe11855f	-0.14211033
248	0x3ddd45b1	0.10804308
249	0xbd8240af	-0.06359994
250	0x3daab748	0.083357394
251	0xbd0dd827	-0.034629967
252	0xbdcbe60b	-0.099559866
253	0xbd491838	-0.049095362
254	0xbd4f2b03	-0.05057813
255	0x3cbc20cb	0.022964856

StatefulPartitionedCall/model/conv2d_3/BiasAdd/ReadVariableOp:0 f4 [16]
0	0xbd018a07	-0.031625774
1	0xbd2319d9	-0.039819572
2	0xbc13a8f7	-0.009012452
3	0xb977ae13	-0.00023620603
4	0xbc5badb5	-0.013408114
5	0xbd1ce03b	-0.03829978
6	0x3ca2271f	0.019794045
7	0xbc082838	-0.00831037
8	0xbc9f72bc	-0.01946389
9	0xbbf96bcb	-0.007611727
10	0xbce07e4a	-0.02740397
11	0x3df0fd17	0.11767023
12	0xbc362c27	-0.011118925
13	0x3d79bdbe	0.060971968
14	0xbb82d4dd	-0.0039926604
15	0xbcd7c009	-0.026336687

StatefulPartitionedCall/model/conv2d_2/Conv2D/ReadVariableOp:0 f4 [16, 32, 3, 3]
0	0x3c85d90f	0.016338853
1	0xbd810f3a	-0.06301732
2	0xbbcb97e4	-0.006213175
3	0x3cfee1a6	0.031113457
4	0x3d438cdc	0.047741756
5	0x3ceba66f	0.028765885
6	0x3d0ec1b5	0.034852702
7	0x3dddf4fb	0.10837742
8	0x3dc042e9	0.09387762
9	0x3ddb5dc4	0.10711244
10	0xbd6e3b9e	-0.058162324
11	0x3d6353fa	0.05550001
12	0xbd7cad5a	-0.06168876
13	0xbda78d41	-0.08181239
14	0x3d65638a	0.05600313
15	0xbcba46b5	-0.022738794
16	0x3cb5a914	0.02217535
17	0x3de9032a	0.113775566
18	0xbd99ef11	-0.075163014
19	0x3d815d0f	0.06316578
20	0xbd296491	-0.041355673
21	0x3d68a666	0.056799315
22	0x3d4d14e5	0.050068755
23	0x3da6bdb7	0.08141654
24	0x3e14faf8	0.14548862
25	0xbcc1f6ff	-0.023677347
26	0xbd987f2f	-0.07446133
27	0xbcd3326e	-0.025780883
28	0x3dab650c	0.083688825
29	0x3dfd68f0	0.12373531
30	0x3d32ea60	0.04368055
31	0x3de887f4	0.11354056
32	0x3d4d31d8	0.050096363
33	0x3d2683c3	0.040653
34	0xbd3bcf9d	-0.045852292
35	0x3d826614	0.06367126
36	0x3dcd04de	0.10010694
37	0xbc7465d0	-0.014916852
38	0xbd2494fc	-0.040181145
39	0x3dd2f492	0.10300554
40	0xbd40356f	-0.04692596
41	0xbda52249	-0.0806318
42	0x3c4d3f25	0.012527262
43	0xbd9ff23e	-0.07809876
44	0xbd02b4c5	-0.031910677
45	0xbdb13dc4	-0.08654359
46	0xba9bd07c	-0.0011887695
47	0x3cc9638b	0.024583599
48	0xbdb9d3f6	-0.090736315
49	0xbd285565	-0.041097064
50	0xbd1e1baf	-0.03860062
51	0xbd310043	-0.04321314
52	0xbcd95f40	-0.026534677
53	0x3cf30084	0.029663332
54	0xbe31211c	-0.17297786
55	0x3e2a15c3	0.16609864
56	0xbd23f7ad	-0.040031124
57	0xbe0a966c	-0.13533944
58	0x3e46f79a	0.1943039
59	0xbd6af93e	-0.057366602
60	0x3dc58d0f	0.096460454
61	0x3dcf3b56	0.10118739
62	0x3d3500b3	0.04419012
63	0xbcf3eda5	-0.029776404
64	0xbcc74848	-0.024326459
65	0x3c94d8e9	0.018169837
66	0x3afa7a23	0.0019109886
67	0x3d5b5e2d	0.05355661
68	0xbde81c10	-0.113334775
69	0x3d29aea2	0.04142631
70	0x3be318fa	0.0069304677
71	0x3c1e6322	0.00966719
72	0xbe029adb	-0.12754385
73	0xbd81ee68	-0.063443005
74	0xbd841043	-0.06448414
75	0xbdcd40e4	-0.100221425
76	0xbd118437	-0.03552648
77	0x3d8fcff1	0.070220836
78	0x3cc5433c	0.024079911
79	0x3da5e66f	0.08100592
80	0xbc46cec2	-0.012134256
81	0xbcf2866c	-0.029605113
82	0x3d2db836	0.042412005
83	0x3dce4222	0.100712076
84	0xbcd3764d	-0.025813246
85	0x3d912021	0.07086206
86	0xbd581361	-0.052752856
87	0x3e1529e5	0.14566763
88	0x3d6e6e19	0.058210466
89	0xbd0b503b	-0.03401206
90	0x3d8cb4d8	0.06870431
91	0xbb6fd486	-0.003659518
92	0x3b81f740	0.003966242
93	0x3cac82ab	0.021058401
94	0x3daf4ef0	0.08559978
95	0xbbc3eb74	-0.005978996
96	0x3dd447e2	0.10365273
97	0x3d96870f	0.07349979
98	0x3dc2da53	0.09514298
99	0xbde1829b	-0.11011239
100	0x3d895acf	0.067067735
101	0xbd9f2c7e	-0.07772158
102	0x3d5babad	0.05363052
103	0x3d4d4211	0.050111834
104	0xbd1adb7a	-0.037806965
105	0x3d42ab45	0.047526617
106	0xbcc7963e	-0.024363633
107	0xbdd58fd5	-0.104278244
108	0x3d978fcb	0.07400473
109	0xbd5c2a20	-0.05375111
110	0x3d5ffac3	0.054682504
111	0x3dcc585f	0.09977793
112	0x3cc98965	0.024601648
113	0xbc1108f4	-0.008852232
114	0x3cd3cb50	0.025853783
115	0xbdcdb9ad	-0.100451805
116	0x3c9a280e	0.018817928
117	0xbcc2415d	-0.023712808
118	0x3ca8528d	0.020547176
119	0xbda5782c	-0.080795616
120	0x3d8c7282	0.06857778
121	0x3dab54b6	0.08365767
122	0x3da5a5b5	0.08088247
123	0xbdae1d0e	-0.085016355
124	0xbe5e8de5	-0.21733816
125	0xbd9ab42e	-0.07553898
126	0xbc509315	-0.01273038
127	0xbcd03f9a	-0.025420953
128	0xbe041757	-0.12899528
129	0xbd07ba0d	-0.033136416
130	0x3d8aa5fb	0.067699395
131	0x3d9fb3c5	0.0779796
132	0x3d40f392	0.047107287
133	0xbd9b95a9	-0.07596905
134	0xbde1bb0c	-0.110220045
135	0x3d8702f9	0.06592364
136	0x3cd23ffb	0.025665274
137	0x3d5d1a7d	0.05398034
138	0xbdb344f9	-0.0875339
139	0xbd90f449	-0.07077844
140	0xbdcc5c13	-0.09978499
141	0xbc2b7c10	-0.0104665905
142	0xbd67e68e	-0.05661636
143	0xbd77e292	-0.06051881
144	0xbe0f7ab5	-0.14011653
145	0x3e607d21	0.21922733
146	0x3dffe6ce	0.124951944
147	0x3e042b0e	0.12907049
148	0x3e6327f6	0.22183213
149	0x3df713ac	0.12064299
150	0x3c0e8d88	0.008700736
151	0xbd7fa204	-0.06241037
152	0x3e4901b2	0.19629553
153	0x3ce00123	0.027344292
154	0x3d1f6a8a	0.038919963
155	0x3d3193fd	0.043354023
156	0x3cc3e032	0.023910616
157	0x3d108f99	0.035293195
158	0x3c29bda7	0.010360158
159	0x3d8b9112	0.06814779
160	0xbc948053	-0.018127596
161	0xbd282650	-0.041052163
162	0x3d754123	0.059876572
163	0x3cf4350d	0.029810453
164	0x3d88a86e	0.066727504
165	0x3a5668d0	0.00081790704
166	0xbd9f3f61	-0.077757604
167	0xbc39d080	-0.011341214
168	0x3dceed1f	0.10103821
169	0xbc6a567b	-0.014302845
170	0xbac45423	-0.0014978688
171	0xbd9d1c17	-0.07671373
172	0x3dfe88f2	0.12428464
173	0x3c0a9e94	0.0084606595
174	0x3cd5930b	0.026071092
175	0xbca1f668	-0.019770816
176	0xbd4a435f	-0.049380656
177	0x3d8fe18d	0.07025442
178	0xbda35064	-0.07974318
179	0x3d925080	0.071442604
180	0x3bc61a3f	0.0060456092
181	0x3d453bc4	0.0481527
182	0xbdd1b1f8	-0.10239023
183	0x3ddabe00	0.10680771
184	0xbd4340f9	-0.047669385
185	0x3d8f18f7	0.069871835
186	0x3c3465ce	0.0110106
187	0x3c0d3ad1	0.00861998
188	0x3dc533f3	0.09629049
189	0xbba87611	-0.0051410277
190	0x3d9cadb6	0.0765032
191	0x3dd5ee8a	0.10445888
192	0xbde1b1d9	-0.1102025
193	0x3c5fa265	0.013649558
194	0xbdd3e4cb	-0.10346373
195	0x3d8e6229	0.06952316
196	0x3d5446e4	0.05182542
197	0xbd40bf91	-0.047057692
198	0x3d67b4c3	0.056568872
199	0x3ddcb8f7	0.10777467
200	0x3dca9d76	0.098933145
201	0xbbc30daa	-0.0059525566
202	0x3cb56085	0.02214075
203	0x3de4c6da	0.111707404
204	0x3e816b3e	0.25277132
205	0x3e18c3ee	0.14918491
206	0x3dba3306	0.09091763
207	0x3dee18dd	0.11625836
208	0xbc8ed5bc	-0.0174359
209	0xbdd79529	-0.10526497
210	0xbc67ddb7	-0.014151982
211	0xbdbd10e6	-0.09231739
212	0x3c816098	0.01579313
213	0x3d4f7692	0.050650187
214	0xbd0571d5	-0.03257926
215	0xbdb1338d	-0.08652411
216	0xbda5f1cd	-0.081027605
217	0xbc396bf2	-0.01131724
218	0xbdb1ab81	-0.0867529
219	0x3d8cfc25	0.0688403
220	0xbdb4e17a	-0.08832069
221	0xbddb6edb	-0.107145034
222	0xbc4835d8	-0.012219869
223	0x3d561319	0.052264307
224	0xbdb3edb0	-0.0878557
225	0x3de6d9cd	0.11272011
226	0xbda3a2df	-0.079900496
227	0xbdd5934d	-0.10428486
228	0xbde34987	-0.110980086
229	0x3de15150	0.11001837
230	0xbd50ed8e	-0.0510078
231	0x3cb4e249	0.022080557
232	0xbc47981b	-0.012182261
233	0xbd9c2694	-0.07624546
234	0xbd98c876	-0.0746011
235	0x3dff512b	0.124666534
236	0x3d6e1cdf	0.058133002
237	0xbd8c61d5	-0.068545975
238	0xbb9971da	-0.0046827616
239	0x3d494541	0.04913831
240	0x3d97bd56	0.0740916
241	0x3c264baf	0.01014988
242	0x3d6c37cc	0.0576704
243	0xbdd5c0b3	-0.10437145
244	0xbd94263b	-0.072338544
245	0x3c0978de	0.008390633
246	0x3daa0415	0.0830156
247	0x3d9cfa80	0.076649666
248	0xbdbabc8d	-0.091179945
249	0x3d038a24	0.032114163
250	0x3cbda103	0.023148065
251	0x3d093452	0.033497162
252	0xbd65ee56	-0.056135498
253	0x3ce1ba10	0.027554542
254	0x3de87561	0.11350513
255	0xbd5881c6	-0.052858137

StatefulPartitionedCall/model/conv2d_2/BiasAdd/ReadVariableOp:0 f4 [16]
0	0x3d193ea8	0.03741327
1	0x3bd603f5	0.0065312334
2	0xbc74e990	-0.014948264
3	0x3b9332a3	0.0044921204
4	0x3c36ca62	0.01115665
5	0xbd0de171	-0.034638826
6	0xbcf91603	-0.030406004
7	0xbc81fe93	-0.01586846
8	0xbc08107d	-0.008304712
9	0xbba624e8	-0.0050703175
10	0xbd16db52	-0.036830254
11	0x3d105d1a	0.03524504
12	0x3c14f06c	0.009090524
13	0x3c6de285	0.0145193385
14	0x3c0e028b	0.0086675985
15	0xbc14fdae	-0.009093685

StatefulPartitionedCall/model/conv2d_1/Conv2D/ReadVariableOp:0 f4 [32, 64, 3, 3]
0	0xbc4ae3f2	-0.012383448
1	0x3a4c0afe	0.00077836204
2	0x3d39d4bd	0.0453689
3	0xbd401893	-0.046898436
4	0xbc8b1485	-0.016977558
5	0xbc52d824	-0.012868915
6	0xbc924669	-0.01785584
7	0xbb729fc8	-0.0037021507
8	0x3d8933aa	0.06699307
9	0xbd9b498c	-0.07582387
10	0xbd9a3349	-0.07529313
11	0x3c0d544b	0.008626054
12	0x3947cb9b	0.00019053968
13	0xbcaaa997	-0.02083282
14	0xbd7b97b5	-0.061423976
15	0x39099b46	0.00013123182
16	0xbc547a1b	-0.012968565
17	0xbce99442	-0.028513078
18	0x3c6d13a1	0.014470012
19	0x3d900486	0.07032113
20	0x3d786181	0.060639862
21	0x3d2fbcf6	0.042904817
22	0xbd76c426	-0.060245655
23	0x3bccb63c	0.00624731
24	0x3ca1b1d2	0.019738112
25	0x3b6fe0c9	0.0036602488
26	0x3db28ed8	0.087186515
27	0x3d9e2b35	0.07723085
28	0x3d296d24	0.04136385
29	0xbd8751ab	-0.06607374
30	0x3d1ebea8	0.038756043
31	0x3cd0d67e	0.025492903
32	0x3b138718	0.0022510942
33	0xbc6f951d	-0.014622954
34	0x3db1d2e6	0.08682804
35	0xbcf632d3	-0.030053532
36	0x3c5fd1b0	0.013660833
37	0x3d6bd605	0.05757715
38	0xbd5c1caf	-0.053738292
39	0x3b9702ce	0.0046084886
40	0x3dad65bb	0.08466669
41	0x3c9fde89	0.019515293
42	0xbd882f3c	-0.06649634
43	0xbbba7758	-0.0056904964
44	0xbc84927d	-0.016183132
45	0x3d950985	0.07277206
46	0x3e0bd5ae	0.13655731
47	0x3da13d5c	0.078730315
48	0x3db146a8	0.08656055
49	0x3d52785d	0.05138432
50	0x3c747fff	0.014923095
51	0xbc1d8209	-0.009613522
52	0xbddeca34	-0.10878411
53	0xbdeb07dd	-0.11476109
54	0xbcd3d883	-0.025860077
55	0x3bddb85c	0.006766362
56	0xbc818dc8	-0.015814677
57	0x3c7ca73e	0.015420733
58	0x3c8c1ab2	0.017102573
59	0xbcd7f438	-0.02636157
60	0x3ca04315	0.019563237
61	0xbd0723d8	-0.032993168
62	0xbd8ed068	-0.06973344
63	0x3c93d0fd	0.01804399
64	0x3db1f554	0.08689371
65	0x3ac62447	0.0015117013
66	0x3d04ea88	0.03245023
67	0x3da2f024	0.079559594
68	0x3cb9200a	0.022598285
69	0x3d9f08f2	0.07765378
70	0x3d8bb1c9	0.06821019
71	0xbd96fef0	-0.07372844
72	0x3d997841	0.0749364
73	0x3d218c3e	0.039440386
74	0x3d9a8dc1	0.07546569
75	0x3d78d43b	0.060749274
76	0x3db7c0e1	0.089723356
77	0x3d7c0a28	0.061533123
78	0x3d99dd21	0.0751288
79	0xbd0209b4	-0.031747535
80	0xbd8d75d8	-0.069072425
81	0x3d478e7b	0.048719864
82	0xbd6176af	-0.055044826
83	0xbd8d676b	-0.06904491
84	0x3c6cc3ff	0.014451026
85	0x3c88bebe	0.016692515
86	0xbd70c2e6	-0.05877962
87	0xbd18db80	-0.037318707
88	0x3cbb35df	0.022852836
89	0x3d27b484	0.040943637
90	0xbc600073	-0.013671982
91	0x3da500dd	0.08056805
92	0xbcbfa09b	-0.023392012
93	0x3d6578a3	0.05602325
94	0xbcee88d7	-0.029117985
95	0xbd26262f	-0.04056376
96	0x3d949984	0.07255843
97	0x3ca43f15	0.020049611
98	0xbda75ec1	-0.0817237
99	0x3cffd3d6	0.031228941
100	0xbd1dbdfd	-0.038511265
101	0x3c8283a7	0.015931917
102	0x3d024861	0.031807307
103	0x3d483a6c	0.04888384
104	0x3c54b0db	0.012981619
105	0x3d0e230a	0.034701385
106	0x3d8aefc3	0.06784012
107	0xbc914b11	-0.01773599
108	0xbda376ca	-0.079816416
109	0xbda2029b	-0.07910653
110	0x3d63d032	0.055618472
111	0x3d70bf1a	0.058776
112	0xbd0d09dc	-0.03443323
113	0xbce784b7	-0.028261526
114	0x3ab5e8da	0.0013878599
115	0x3d7a8d58	0.061169952
116	0xbcc1a904	-0.023640163
117	0x3d959f06	0.07305722
118	0xbd5f8e3c	-0.054579005
119	0xbd89f813	-0.067367695
120	0x3d7f09b5	0.062265117
121	0xbc9230e1	-0.017845573
122	0xbd639883	-0.05556537
123	0x3db26beb	0.0871199
124	0x3b822d3b	0.003972677
125	0xbcff091e	-0.031132277
126	0x3d9c21ca	0.07623632
127	0x3d9aad21	0.07552553
128	0xbd394be4	-0.04523839
129	0x3d0279f7	0.031854596
130	0x3b6dceb2	0.003628653
131	0xbd0ebbbf	-0.034847017
132	0xbce7b7ac	-0.028285824
133	0x3da42c8c	0.08016309
134	0xbb8bc0cb	-0.004264926
135	0x3b1feb4d	0.0024401725
136	0x3d3ddac1	0.046351198
137	0x3da16b53	0.078817986
138	0xbdad29e2	-0.08455254
139	0xbd2fe2ad	-0.042940784
140	0xbdbf8dd6	-0.09353225
141	0xbd735c0e	-0.059413962
142	0x3d65016e	0.055909567
143	0x3cfea3cc	0.031083964
144	0x3d93e25d	0.0722091
145	0x3dcec9d6	0.10097091
146	0xbd575edf	-0.05258071
147	0xbcbbd16d	-0.02292701
148	0x3d4e47fe	0.050361626
149	0x3c8245b1	0.015902372
150	0x3b93a5b5	0.004505838
151	0x3ba47f86	0.005020085
152	0xbbea34e6	-0.0071474193
153	0x3d985e33	0.07439842
154	0x3c4a453d	0.012345609
155	0x3d94663f	0.072460644
156	0xbbeb4f73	-0.007181102
157	0x3d8a9032	0.06765784
158	0x3dc84640	0.09779024
159	0x3d8ddadd	0.069265105
160	0x3d89cbd3	0.067283295
161	0xbd24b127	-0.04020801
162	0xbc448ead	-0.011996907
163	0xbd7bea1a	-0.061502554
164	0x3963c28f	0.00021720886
165	0xbc15216b	-0.009102206
166	0xbd895140	-0.0670495
167	0xbd645864	-0.05574836
168	0xbd51d6dc	-0.051230296
169	0x3d3ed976	0.046594106
170	0x3da1f790	0.07908547
171	0x3c714cf4	0.01472782
172	0xbd44f83f	-0.04808831
173	0xbdba5cca	-0.09099729
174	0x3d5e8cea	0.054333605
175	0x3d054c67	0.032543566
176	0x3c978a3f	0.018498538
177	0x3d024056	0.031799637
178	0xbca6882e	-0.020328607
179	0x3cc128c3	0.023579007
180	0x3d9a2f9c	0.07528612
181	0xbd454924	-0.048165455
182	0xbcb9d08b	-0.022682449
183	0x3d054510	0.032536566
184	0x3d3753e1	0.044757728
185	0xbcafd68e	-0.021464612
186	0x3d23d69d	0.039999593
187	0x3d8be514	0.068308026
188	0x3d8a097d	0.06740091
189	0xbca1253c	-0.019671075
190	0x3d65cce1	0.05610359
191	0x3d83ca3b	0.06435057
192	0xbda8b142	-0.08236934
193	0xbd8c34c6	-0.06846003
194	0xbcd16a56	-0.0255634
195	0x3b1f4879	0.0024304672
196	0xbd28ed1b	-0.041241746
197	0xbd8e00e9	-0.06933767
198	0xbc488cde	-0.012240617
199	0xbd7bcb0a	-0.06147293
200	0xbd2101cf	-0.039308365
201	0x3bc27022	0.0059337774
202	0xbda5d206	-0.080966994
203	0x3c67071f	0.014100819
204	0xbcacfc09	-0.021116273
205	0xbd909471	-0.07059563
206	0xbdcebc15	-0.100944676
207	0x3b1e4379	0.0024149104
208	0x3cdfce37	0.02732001
209	0x3d86cc0b	0.06581887
210	0x3d7d01d9	0.06176934
211	0xbd6e58b2	-0.058190055
212	0xbd67b348	-0.05656746
213	0xbd8dce40	-0.06924105
214	0x3bf4330b	0.007452374
215	0xbd4dba9b	-0.05022679
216	0x3db37b88	0.08763796
217	0xbd84adaa	-0.06478436
218	0x3d9fcd8e	0.07802878
219	0x3c9907cb	0.018680474
220	0x3da6fc5a	0.08153601
221	0xbd66bbe5	-0.056331534
222	0xbc35eaf2	-0.011103379
223	0xbc2ccb6c	-0.010546546
224	0xbcc0303b	-0.023460498
225	0xbc8fdfd6	-0.017562788
226	0xbc6e6283	-0.014549854
227	0xbd79b612	-0.06096465
228	0xbca4e379	-0.020127999
229	0x3d1c8205	0.038209934
230	0x3b889333	0.004167938
231	0xbcc1c7bc	-0.023654811
232	0xbcff95c2	-0.03119934
233	0xbc77f1e5	-0.015133356
234	0xbd96cb6b	-0.07363018
235	0xbcf9a7a4	-0.030475445
236	0x3cfff0a6	0.03124268
237	0x3d93b79d	0.07212756
238	0x3c0ae00b	0.008476268
239	0x3d96dec0	0.07366705
240	0xbcf4e4d1	-0.029894264
241	0xbd81475f	-0.06312441
242	0x3c506466	0.012719249
243	0xbd4f341d	-0.05058681
244	0x3d5880bb	0.052857142
245	0x3d9eb9b2	0.07750262
246	0x3da7e479	0.081978746
247	0xbce457c1	-0.027873876
248	0x3cc3878f	0.02386835
249	0xbb9b4b7f	-0.0047392244
250	0x3c18d2e1	0.009327621
251	0x3dafe9ed	0.0858954
252	0x3c1f0c9e	0.009707598
253	0x3cadb935	0.021206478
254	0xbdfe63cf	-0.12421381
255	0xbd04041e	-0.03223049

StatefulPartitionedCall/model/conv2d_1/BiasAdd/ReadVariableOp:0 f4 [32]
0	0xbcbdcfc0	-0.023170352
1	0xbc4c7a02	-0.012480261
2	0x3d979e18	0.07403201
3	0x3d9d0960	0.07667804
4	0xbcc8d3ba	-0.024515022
5	0xbc54431e	-0.012955455
6	0x3d5679ca	0.05236224
7	0x3d8f83be	0.0700755
8	0x3cdc62df	0.026902614
9	0x3d8c8379	0.06861014
10	0xbcf07774	-0.029353835
11	0xb9efa78f	-0.00045710473
12	0xbc6c4d28	-0.014422692
13	0xbc1581db	-0.009125198
14	0xbc9b2af7	-0.018941386
15	0xbce8b69b	-0.028407386
16	0xba00a4cb	-0.00049073686
17	0x3d05786f	0.032585558
18	0x3cc9dcb8	0.02464138
19	0xbc79502b	-0.015216867
20	0x3d2e048c	0.042484805
21	0xbbc26514	-0.0059324596
22	0x3d5e4a6c	0.054270193
23	0xbcd5fd67	-0.026121808
24	0xbbc3276f	-0.0059556286
25	0xbc80bd45	-0.01571525
26	0x3d600595	0.054692823
27	0xbcb0855f	-0.021547971
28	0x3d5439f1	0.05181307
29	0xbc9d911b	-0.01923423
30	0xbbac5804	-0.0052595157
31	0x3d790be3	0.06080235
